data.pth (torch, 4991 bytes, 6 tensors)

l1.weight f4 [8, 54]
0.36560026 0.62872446 -0.5431389 0.2214809 0.010280751 -0.460532 -0.31201133 -0.37606996
-0.49038422 -0.59392667 0.2205109 0.22185086 -0.034772746 0.29883125 0.61718404 0.2688102
0.24085921 -0.45770052 -0.12499311 0.22680259 0.45991334 0.26709622 0.14100507 0.32378668
0.31448025 0.09184311 -0.009368942 0.6511761 0.007765867 0.48920664 -0.32882282 0.16114064
0.17597137 -0.36051628 0.7752605 0.32458863 0.07665985 -0.40413737 -0.075179905 -0.22479482
-0.30791235 -0.11565024 0.17156616 0.5841676 0.13269605 0.81065476 0.91345525 0.4468198
0.24737442 -0.14787075 0.28345755 -0.050114773 -0.22028384 0.42171028 -0.013861272 0.5371958
0.89132184 0.3060953 0.463843 0.5281399 0.6631457 0.6467413 0.8600354 0.75901544
0.30506647 -0.27489713 -0.19075346 -0.3311432 0.35788846 -0.08524227 0.36191154 0.6439039
-0.287936 0.42656118 -0.1686585 0.45361522 0.52606636 -0.070370845 0.1734532 0.28849944
-0.38945028 0.6467944 -0.31428495 0.39201576 0.3837891 -0.36039725 0.11132742 0.98801506
0.46402755 -0.2349575 -0.29319635 0.6265633 0.50756884 0.6201787 0.26841748 -0.5174145
-0.2621172 0.21573117 0.2092433 0.44320956 -0.07427381 0.02920917 0.1937591 -0.50385374
-0.22952528 -0.3440726 0.6311998 0.36995536 0.41813868 0.6673276 -0.26835784 -0.20491442
-0.5402836 0.65364295 -0.13211961 -0.2171928 -0.15658948 -0.19068202 -0.38784406 0.016015135
-0.21766591 0.10952978 0.52160794 0.08870165 -0.20361878 0.5542602 -0.24953876 -0.5917674
0.16647363 -0.59154975 -0.5913179 -0.4461357 0.012541031 -0.14970365 -0.24115305 0.85491437
-0.033070564 0.72171086 0.4259861 -0.11639755 0.20363179 -0.3793806 0.7036655 0.09770616
-0.07252749 -0.23718247 -0.19506489 -0.19471784 0.28309947 -0.40893468 -0.014952771 0.5329349
-0.36089063 0.5975163 0.64572614 0.17530513 -0.23683241 -0.36038113 -0.118741184 -0.27840203
-0.06765086 0.39482984 0.19724828 0.041779686 -0.45124158 0.054667022 -0.086981766 0.74927974
-0.26685697 -0.64798623 -0.44171643 -0.6316495 0.20039602 0.4611931 -0.10422681 0.48864785
-0.09355401 0.58341014 0.071714416 0.7721408 0.06757926 0.112384565 0.2941551 -0.020099571
0.066146374 0.644079 0.20400454 0.005032003 -0.01578359 -0.3123505 0.039026234 -0.35628504
0.56686765 0.29884532 0.25240517 -0.5109214 -0.2939605 0.63945 0.047349904 -0.43056127
-0.24362679 -0.22181402 0.44260806 -0.10263566 0.35909864 -0.26477814 0.31475788 -0.25660497
0.5692857 0.3130431 0.18373571 -0.015055854 0.44389316 0.019209217 -0.32978222 0.17369382
0.63479024 0.0119129745 -0.20675315 0.2075636 0.040123552 -0.26224256 -0.09818708 -0.14856993
-0.37641296 -0.1328872 0.2975414 -0.20379831 -0.3565949 -0.2827782 -0.122932605 -0.06378876
0.5079839 -0.2789046 -0.027372878 0.6689734 0.47906682 0.45775416 0.71561575 0.32114252
-0.047021583 0.21304806 -0.31330502 -0.3059905 -0.26724613 -0.24516316 -0.15957592 -0.38293582
0.43422136 -0.33265093 -0.12677425 -0.12939908 -0.22809216 -0.44130108 -0.28831095 -0.25028074
00000000: f52f bb3e 16f4 203f 270b 0bbf e4cb 623e
00000010: 9870 283c daca ebbe f3bf 9fbe 3e8c c0be
00000020: a413 fbbe 940b 18bf 9ccd 613e df2c 633e
00000030: de6d 0ebd 6900 993e c6ff 1d3f 7ea1 893e
00000040: cca3 763e b957 eabe 63fc ffbd f03e 683e
00000050: c379 eb3e d6c0 883e a263 103e 5ec7 a53e
00000060: 8e03 a13e 3e18 bc3d 3180 19bc 7ab3 263f
00000070: d078 fe3b 4b79 fa3e 775b a8be 0d02 253e
00000080: d731 343e 9795 b8be 7977 463f 7b30 a63e
00000090: d7ff 9c3d 18eb cebe ecf7 99bd 9d30 66be
000000a0: b0a6 9dbe 08da ecbd 0aaf 2f3e 028c 153f
000000b0: 79e1 073e 1287 4f3f 34d8 693f 91c5 e43e
000000c0: b84f 7d3e 6e6b 17be 5921 913e 2645 4dbd
000000d0: 1692 61be 69ea d73e 631a 63bc aa85 093f
000000e0: ab2d 643f 86b8 9c3e d47c ed3e 2d34 073f
000000f0: ebc3 293f d690 253f 482b 5c3f d64e 423f
00000100: ac31 9c3e 51bf 8cbe e054 43be 9a8b a9be
00000110: 283d b73e 8093 aebd 784c b93e e3d6 243f
00000120: 596c 93be 3a66 da3e d0b4 2cbe 4140 e83e
00000130: 49ac 063f 971e 90bd b79d 313e 33b6 933e
00000140: 0766 c7be 5194 253f f5e9 a0be 4ab6 c83e
00000150: 0180 c43e fd85 b8be a1ff e33d 8eee 7c3f
00000160: 0595 ed3e b398 70be d51d 96be 7466 203f
00000170: 08f0 013f 08c4 1e3f 046e 893e 4775 04bf
00000180: 3a34 86be a2e8 5c3e e043 563e 5dec e23e
00000190: de1c 98bd 1248 ef3c c968 463e 8ffc 00bf
000001a0: ad08 6bbe 492a b0be 4f96 213f ca6a bd3e
000001b0: 4616 d63e fbd5 2a3f 3366 89be 16d5 51be
000001c0: 0750 0abf 2555 273f 5d4a 07be ca67 5ebe
000001d0: fe58 20be 2642 43be 7f93 c6be 2c32 833c
000001e0: d0e3 5ebe 2651 e03d 1988 053f 36a9 b53d
000001f0: 7181 50be ffe3 0d3f 1787 7fbe 117e 17bf
00000200: 1078 2a3e ce6f 17bf 9c60 17bf e66b e4be
00000210: e678 4d3c ea4b 19be d3f0 76be abdb 5a3f
00000220: 0075 07bd 0bc2 383f da1a da3e d761 eebd
00000230: da84 503e 2d3e c2be 6c23 343f 2b1a c83d
00000240: 4b89 94bd f6df 72be 17bf 47be 1d64 47be
00000250: 6af2 903e e35f d1be 78fc 74bc 6c6e 083f
00000260: a8c6 b8be d4f6 183f 4f4e 253f 3083 333e
00000270: 3284 72be e083 b8be 942e f3bd b68a 8ebe
00000280: 898c 8abd 2327 ca3e 74fb 493e 2d21 2b3d
00000290: 2309 e7be 87ea 5f3d 7f23 b2bd ccd0 3f3f
000002a0: 7aa1 88be 6de2 25bf a828 e2be c8b3 21bf
000002b0: 9d34 4d3e 8121 ec3e de74 d5bd 0d30 fa3e
000002c0: 3f99 bfbd 5e5a 153f 02df 923d 05ab 453f
000002d0: ff66 8a3d e129 e63d 7f9b 963e dba7 a4bc
000002e0: c077 873d 5de2 243f 91e6 503e 80e3 a43b
000002f0: 964c 81bc 68ec 9fbe f9d9 1f3d fe6a b6be
00000300: 3d1e 113f 4102 993e 403b 813e bfcb 02bf
00000310: fe81 96be ffb2 233f f9f1 413d 8772 dcbe
00000320: 4d79 79be 3723 63be 869d e23e a532 d2bd
00000330: c7db b73e 0091 87be f227 a13e ba61 83be
00000340: b5bc 113f 2f47 a03e 3725 3c3e d4ac 76bc
00000350: f745 e33e a65c 9d3c 37d9 a8be cbdc 313e
00000360: 9d81 223f a32e 433c 19b7 53be 8d8b 543e
00000370: 9858 243d a844 86be 4f16 c9bd b722 18be
00000380: 33b9 c0be 9513 08be 5957 983e 81b0 50be
00000390: 9b93 b6be 4ec8 90be 17c4 fbbd aea3 82bd
000003a0: 3c0b 023f 95cc 8ebe 163d e0bc d741 2b3f
000003b0: 3f48 f53e c15e ea3e 9832 373f cb6c a43e
000003c0: b499 40bd 4529 5a3e 8469 a0be c9aa 9cbe
000003d0: 7cd4 88be 0d0c 7bbe df67 23be 2a10 c4be
000003e0: 4352 de3e 3951 aabe 1cd1 01be 3181 04be
000003f0: fe90 69be 37f2 e1be 7e9d 93be cc24 80be

l1.bias f4 [8]
0.5167264 0.8420786 0.5915097 1.0288578 0.82084286 0.52939093 0.65777594 0.77632034
00000000: 2e48 043f 7792 573f 2e6d 173f 9db1 833f
00000010: c222 523f 2a86 073f 0164 283f eebc 463f

l2.weight f4 [8, 8]
-0.05893466 -0.3307513 0.14156571 -0.3369802 -0.21985279 -0.31273046 -0.30820632 0.2324538
-1.4191121 1.0819465 0.6484172 0.38790056 0.35355273 0.9365271 1.1952107 0.17896053
0.5617879 0.38637367 -0.78037494 -0.17086221 1.2229332 0.37067208 -0.09489964 0.71500593
0.55236006 0.53945917 1.1580459 0.2128605 0.8143251 -1.2688085 -1.1760103 0.35252362
0.33093366 -0.48548383 -0.25203738 1.7437198 1.0118257 0.40927786 -0.30512157 1.459565
0.978566 0.2582065 1.4020405 1.3144552 0.18407232 -0.06485525 -0.063541055 -1.2774401
-0.6625791 1.2616189 -0.4721387 -0.10916024 0.5382154 1.5402398 1.2483691 0.50057167
-0.4470264 0.13260151 0.47157744 0.2206815 1.1986456 0.23320583 -0.07666927 0.34074935
00000000: 7865 71bd 3c58 a9be 9af6 103e ab88 acbe
00000010: 1721 61be 351e a0be 38cd 9dbe 5e08 6e3e
00000020: 77a5 b5bf 397d 8a3f abfe 253f e79a c63e
00000030: dd04 b53e 3dc0 6f3f aafc 983f 6e41 373e
00000040: 55d1 0f3f c5d2 c53e a7c6 47bf 81f6 2ebe
00000050: 1389 9c3f bbc8 bd3e be5a c2bd a10a 373f
00000060: 7867 0d3f ff19 0a3f d93a 943f 1af8 593e
00000070: 9c77 503f 5168 a2bf 8187 96bf fa7d b43e
00000080: 2370 a93e 5691 f8be 0b0b 81be 3632 df3f
00000090: 8183 813f de8c d13e e538 9cbe 07d3 ba3f
000000a0: 4d83 7a3f a433 843e 1076 b33f 1140 a83f
000000b0: 747d 3c3e d4d2 84bd d021 82bd 2883 a3bf
000000c0: c99e 29bf ba7c a13f 2abc f1be 678f dfbd
000000d0: 7cc8 093f 9426 c53f 8fca 9f3f 7725 003f
000000e0: a5e0 e4be b1c8 073e 9972 f13e 55fa 613e
000000f0: 386d 993f 82cd 6e3e c704 9dbd b376 ae3e

l2.bias f4 [8]
-0.10746035 -0.11024223 -0.43340188 -0.3294736 0.5677696 0.0052895076 -0.2816755 -0.546346
00000000: 2c14 dcbd aec6 e1bd dae6 ddbe c4b0 a8be
00000010: 5959 113f 9b53 ad3b c537 90be 55dd 0bbf

l3.weight f4 [7, 8]
-0.16755265 -0.8323065 -2.2052531 -1.5119811 0.6371397 0.75570035 -1.0884669 -0.73031884
0.03984347 -0.60836655 -0.4473828 0.4239832 -1.3141729 0.6939704 -0.8518125 -0.09839459
0.21110258 0.38674042 -1.5660543 -1.0766369 0.09516633 0.12695816 0.23970075 0.093776524
0.2671611 -0.27814564 1.3103989 -1.1574631 0.2151297 -1.1875542 0.30390343 0.45664835
-0.34625065 -0.85244536 0.16037448 -0.63037676 1.2405037 -1.5035219 -1.173257 -0.8725878
0.022598177 0.61383647 0.07732794 -0.942573 -1.3812613 -1.3077691 0.75918466 -0.47835034
0.18751237 -0.571551 0.73752743 0.073623456 0.13110292 0.09984378 -1.0644201 0.49841952
00000000: ec92 2bbe 0a12 55bf de22 0dc0 9988 c1bf
00000010: 961b 233f 9475 413f e252 8bbf 2df6 3abf
00000020: e832 233d e9bd 1bbf 5c0f e5be 5314 d93e
00000030: d136 a8bf 0ba8 313f 6210 5abf 1a83 c9bd
00000040: 462b 583e d702 c63e 7874 c8bf 3dcf 89bf
00000050: 91e6 c23d 5201 023e 1d74 753e e80d c03d
00000060: 57c9 883e 1b69 8ebe 27bb a73f c027 94bf
00000070: f64a 5c3e c701 98bf 3b99 9b3e d0cd e93e
00000080: c447 b1be dc39 5abf 3539 243e 5f60 21bf
00000090: d3c8 9e3f 6873 c0bf 492d 96bf ea61 5fbf
000000a0: d01f b93c 6324 1d3f 1c5e 9e3d 774c 71bf
000000b0: 2ccd b0bf fa64 a7bf ed59 423f 56ea f4be
000000c0: 3e03 403e 2b51 12bf 99ce 3c3f e5c7 963d
000000d0: d83f 063e e57a cc3d eb3e 88bf d830 ff3e

l3.bias f4 [7]
0.12397118 -0.27063605 -0.70438296 -0.50546706 1.2322598 -0.0035472144 -0.9397997
00000000: 9ae4 fd3d cf90 8abe 7152 34bf 4a66 01bf
00000010: b0ba 9d3f 6278 68bb b796 70bf
